logs/lightning_logs/version_0/checkpoints/epoch=9-step=2150.ckpt (torch, 668716 bytes, 18 tensors)

model.1.weight f4 [64, 784]
000000 70 6b 59 bc ba 48 02 bc 00 c8 48 3b 24 f1 ea 3b
       -0.013270244 -0.00795191 0.0030636787 0.0071698595
000010 ec 25 89 bc 47 37 0f ba 93 68 9e bb 59 a3 2e 3c
       -0.016741715 -0.0005463254 -0.0048342436 0.010659062
000020 f0 9f ae 3c 34 f2 b7 3c 81 e0 cd bb c2 57 89 bc
       0.021316499 0.022454359 -0.0062828665 -0.016765479
000030 03 91 de 3c eb 7e d4 3c 10 65 9e 3c 50 a1 8f bb
       0.027168756 0.025939425 0.0193353 -0.0043832436
000040 1e 6e d0 3a b6 24 0b bd d9 21 83 bb be 51 9a bc
       0.0015901958 -0.033970557 -0.0040018377 -0.018837806
000050 c1 8e 09 bc 7f 13 47 3c d9 4f 05 bc f4 19 be bc
       -0.008395852 0.012150644 -0.008136713 -0.023205735
000060 fa 1d 1a bd fa a4 a2 bc af e4 40 bc a8 eb 9b bb
       -0.037626244 -0.019854058 -0.011773272 -0.004758317
000070 d5 72 1e bd 13 28 aa 3c d8 2e bb bb 61 45 f0 3c
       -0.03868373 0.020771062 -0.0057123713 0.029329957
000080 db 49 03 bd 92 91 e8 ba 90 b3 3c 3c ba 93 29 bd
       -0.032052856 -0.0017743579 0.01151742 -0.04140065
000090 a2 06 2f bc dd 85 ba bb b6 83 cf bc 08 ee d4 bc
       -0.010682734 -0.0056922273 -0.02533136 -0.025992408
0000a0 b5 ea 0c bd 6d 28 30 bc fe f4 d3 bc 22 da 36 bc
       -0.03440352 -0.010751826 -0.025873657 -0.011160405
0000b0 3b 43 aa bc f5 8a 08 bd 97 37 d7 bc 7d 2e 10 bd
       -0.020784011 -0.033335645 -0.026271624 -0.035200585
0000c0 ed 3c 70 3c 1f 76 da bc 51 2a c0 3c bf 40 ee bc
       0.014662963 -0.026667653 0.023457678 -0.029083608
0000d0 33 78 fe 3c f2 d5 04 bb 89 ff 72 bc f9 25 f1 3c
       0.031063175 -0.0020269123 -0.014831432 0.029437052
0000e0 55 c1 92 3b 60 02 4a bc f8 7a 4d bc 1e d2 10 3c
       0.0044786134 -0.012329668 -0.012541525 0.008839158
0000f0 10 ca cb 3c c9 40 90 3c 6e a6 11 bd 8d fb 08 bd
       0.024876624 0.017609017 -0.03555911 -0.033443023
000100 18 41 e8 bb ab 6a d0 3c 04 aa dc bc 0a 22 c0 bb
       -0.007087838 0.025441488 -0.026936539 -0.005863433
000110 07 69 15 bd 99 ab 01 3d 4c d5 1c 3d 5f 4e 9f bb
       -0.036477115 0.03165779 0.038289353 -0.0048616375
000120 bb 24 b6 3c 6a d4 93 bc 86 de 6e 3b 8f ea a2 3b
       0.022234311 -0.018045623 0.0036448552 0.004971809
000130 cd 8f 9c 3c 46 5a e3 bc ca da 0e bd 4f 99 52 3b
       0.019111538 -0.027753007 -0.034876622 0.0032134836
000140 d0 2c 61 3c 22 9f 47 bc 88 03 62 bc ac 14 92 3c
       0.013743594 -0.012183936 -0.013794787 0.017832123
000150 7f a2 fc bc 40 80 2a 3c 5b 3d a7 bc c6 bf c2 3c
       -0.030839203 0.010406554 -0.020414999 0.023773085
000160 dc 5d ae 3a 05 7b 81 bc 2a 17 f8 bb a0 a1 ce 3c
       0.0013303119 -0.01580573 -0.0075711207 0.025223553
000170 c6 29 27 3c e3 86 2c bc 3d 84 db 3c 48 6c 86 bc
       0.010202831 -0.010530206 0.026796455 -0.016409054
000180 7b e4 0f bc 14 15 c3 3b ca 5a 71 3d 7a 55 a4 3d
       -0.008782501 0.0059534404 0.058924474 0.08024116
000190 79 e1 16 3d 49 e6 da 3c 20 cf bf 3d 3e be 1a 3d
       0.03683612 0.026721137 0.09365678 0.037779085
0001a0 70 04 ab 3d 9e be 19 3d 48 ec 3d 3c b3 1a 86 bc
       0.08350456 0.037535302 0.011591978 -0.016370153
0001b0 f9 d7 eb bc ad d7 96 bc 5a 1f 4e 3c b3 f0 8a bc
       -0.028789507 -0.01841339 0.012580717 -0.016960477
0001c0 8c 75 47 bc a2 32 18 bb b5 80 ed bc ad 98 1d bd
       -0.012174021 -0.002322354 -0.028992036 -0.03847568
0001d0 71 00 ff bc fb f7 4d 3c de 6c bf bc dd b9 73 bc
       -0.03112814 0.01257133 -0.023367342 -0.014875856
0001e0 69 40 2f bc 3e 4f a0 bc e6 5f bf 3b 34 3c 4a bc
       -0.010696509 -0.019569036 0.0058402894 -0.012343455
0001f0 37 27 26 bc 2a f8 93 3c 62 3d 2f 3d 3b d9 7a 3c
       -0.0101411855 0.01806267 0.04278315 0.015310581
000200 ba 38 35 3c e2 0c fe 3c b3 69 38 3d 74 b1 99 ba
       0.011060888 0.031012002 0.045022678 -0.0011725859
000210 19 3c d7 3c 1f e4 9a 3c be 71 fb bc 1d 70 a8 3c
       0.026273774 0.018907605 -0.030693885 0.020561272
000220 c1 e2 ab 3c 7f ca 8b 3c 96 5b be 3c 9f 0c 6e 3c
       0.020982148 0.017064331 0.023237031 0.014529376
000230 1e 4e d2 bb b8 1b 63 bc 9c c0 05 bc ef 9d ed 3c
       -0.0064180037 -0.013861589 -0.008163597 0.029005973
000240 02 d8 cf 3b 14 02 0f 3d f4 6b 28 3c 26 27 85 bc
       0.006342889 0.03491409 0.010279644 -0.016254019
000250 ad fe b1 3a 9f 14 fb 3b 32 ea 34 bd c9 cb 62 3c
       0.0013579928 0.0076623703 -0.04416866 0.0138425315
000260 f4 97 22 3d 3e 9e 1b bd c1 12 0f bb 50 dc ef ba
       0.039695695 -0.03799271 -0.0021831247 -0.0018299911
000270 17 39 80 ba 3e f1 43 3c 03 8e 77 bc f3 77 f6 bc
       -0.0009782639 0.011959372 -0.015109542 -0.030086493
000280 eb 0c 6d bc de b7 67 bd b5 f2 18 bd a1 e4 52 bc
       -0.014468412 -0.056571834 -0.03734084 -0.012871892
000290 a8 43 7c bb 63 9e 89 3b 34 c7 3b bc 45 f4 1f bd
       -0.0038492475 0.0041997894 -0.011461068 -0.039051313
0002a0 6a 1a 79 bb 55 97 83 bb 44 9e 0d bd 20 41 d1 bc
       -0.0038010129 -0.004015843 -0.034574762 -0.02554375
0002b0 50 24 9b 3c a9 33 22 bd 74 71 1b bd a8 4b ef bb
       0.018938214 -0.03960005 -0.037949994 -0.00730272
0002c0 1f 17 4f 3c c3 db da bc dc 95 47 bb d8 09 03 3d
       0.01263979 -0.026716119 -0.0030454313 0.03199181
0002d0 d6 1d 7e 3c 0f ee 11 3d 9e d8 51 3d d3 bf 44 3c
       0.015510043 0.03562742 0.051231973 0.012008625
0002e0 29 f6 06 3d 5f d5 03 3d b3 94 7b 3c cf 07 0c bc
       0.0329496 0.03218591 0.015355277 -0.008546784
0002f0 de fd 30 bc 20 13 70 bd 45 9f 83 bd 96 dc 3b bd
       -0.010802714 -0.05861199 -0.064268626 -0.045864664
000300 8c 1b 41 bc b4 a6 4f 3c 66 d7 1c bc 82 f1 34 3b
       -0.011786353 0.0126740225 -0.009572839 0.002760977
000310 e8 16 b8 3c b8 bf 1c bc dd fe aa bb 05 e8 cc 3c
       0.02247186 -0.009567194 -0.0052183704 0.02501298
000320 16 ea 8e 3c 81 3f 2e bd c9 e6 5d bd 89 64 97 bc
       0.017445605 -0.04254103 -0.054175172 -0.018480556
000330 35 4d 3e 3a 83 13 85 3c 74 8c 87 38 f5 80 86 3d
       0.00072594295 0.016244655 6.463463e-05 0.06567565
000340 37 2a a3 3d df 38 15 3d 87 75 64 3d 45 50 3e 3d
       0.07967036 0.03643119 0.055776145 0.04646327
000350 d2 5f 36 3d 0d 3c a6 3b d2 77 2d 3d f4 56 6d bc
       0.044524975 0.0050730766 0.042350598 -0.014486063
000360 04 08 12 3b 08 28 db bb c5 e0 c5 3a 16 c9 4f bd
       0.002228261 -0.0066881217 0.0015096894 -0.05072888
000370 8f f4 9d bb 6b 62 2a 3c 4f 73 fc 3a 1b 41 dc 3b
       -0.0048204134 0.010399441 0.0019260439 0.0067216284
000380 92 37 81 3a af 50 bc 3c 54 83 f2 bc f2 8d 13 bd
       0.000985848 0.022987692 -0.029603638 -0.03602404
000390 95 29 84 3c f2 f2 03 bd 79 2e 29 bd da d4 fe bc
       0.01613311 -0.032214113 -0.041304085 -0.031107355
0003a0 ac 52 25 3d 16 5e 57 3d 6c 84 1c 3d 0f 1e af 3c
       0.040362045 0.05257996 0.038212225 0.021376638
0003b0 45 a9 62 3c 1a 63 9e 3c 5e 8d f3 3c 36 68 42 3d
       0.013834302 0.019334365 0.029730495 0.047462665
0003c0 da 90 3e 3d 80 74 1d 3c 43 82 d6 3c 85 e1 09 3c
       0.04652486 0.009610295 0.02618516 0.008415584
0003d0 58 15 6d 3c fa 7e 3e bc 3d 20 e2 bc 8d ac c2 bb
       0.014470421 -0.011626953 -0.027603263 -0.00594098
0003e0 fe 19 11 3d be 67 0b 3d 2c 56 24 3d 04 f0 dc 3b
       0.03542518 0.034034483 0.040121242 0.0067424793
0003f0 52 bd 0d bd 21 d4 f7 bb c3 67 28 bd 5a 05 1a bd
       -0.034604378 -0.0075631295 -0.04111458 -0.03760276

model.1.bias f4 [64]
000000 9e 90 af 3a ba 45 0e 3d 3f a4 12 3d ae b6 d1 bc
       0.001339454 0.034734465 0.03580117 -0.025599804
000010 46 d9 84 3c bd cf de bc 82 6b d7 bc 94 22 8b ba
       0.016216885 -0.027198667 -0.02629638 -0.0010615163
000020 c5 f4 c4 bc a6 ea 79 3c 35 19 d6 bb 7c db 81 3b
       -0.024042496 0.015253698 -0.0065337666 0.003962932
000030 9b e3 72 ba 68 12 b7 bc 37 43 a0 bc 4f 10 39 bb
       -0.0009265483 -0.022347644 -0.0195633 -0.002823848
000040 ff bd ea 3c 7c 63 2f bb 30 53 ca bb dc 95 80 bb
       0.02865505 -0.0026762178 -0.0061744675 -0.0039241146
000050 2d ea 92 3b 97 54 68 bb 1e 56 f9 3c 55 39 fb bc
       0.0044834823 -0.003545081 0.030436572 -0.030666986
000060 30 38 19 3d 2d 12 17 3d 64 5a 6e 3c bb cc ef 3c
       0.0374071 0.03688257 0.014547918 0.029272428
000070 b9 a5 66 3b 08 0b 99 bc b7 19 02 bb 63 de 70 bc
       0.0035193993 -0.018682018 -0.0019851753 -0.014701459
000080 f0 db 0a 3c d8 ee 84 3c b9 cd 06 bc 34 92 aa 3b
       0.008475289 0.01622717 -0.008227759 0.005205417
000090 91 04 d6 bb 5b b7 94 3c de 18 0d bd 32 fe e4 3b
       -0.006531306 0.018153837 -0.034447543 0.0069883103
0000a0 32 2b b1 3b b8 f5 b7 bb 08 1d 21 bc f9 98 ac 3b
       0.0054067606 -0.0056140088 -0.009833582 0.005267259
0000b0 bb d0 90 3c 73 75 92 3c 12 04 03 bc 7b 76 1e 3d
       0.017677655 0.01787827 -0.007996576 0.03868721
0000c0 7d 2b d3 3b f7 3b 53 bc 85 2e 19 3d 6c d5 d8 3c
       0.006444393 -0.012892715 0.03739788 0.026468955
0000d0 81 eb 44 bc 8b 88 8a bb 42 3b c6 bc cb 9e 82 bc
       -0.012019039 -0.004227703 -0.024198178 -0.015944859
0000e0 a7 35 d0 3c 78 dc ad bc f2 15 c7 bb 34 bc 1e bb
       0.025416208 -0.021223292 -0.006075614 -0.0024221065
0000f0 f0 fb 2d bc 85 e8 d1 3c 5b be c9 bc 3b 90 0c bd
       -0.010619149 0.02562357 -0.024626901 -0.034317236

model.4.weight f4 [64, 64]
000000 d0 e7 83 bd b9 83 65 3c 5e f0 f9 3d 42 85 7d 3d
       -0.06440699 0.014008456 0.122040495 0.061894663
000010 5d c7 db bd 3e 7a 04 3e be 52 00 3e c3 06 bf 3d
       -0.10731385 0.12937257 0.12531564 0.093274616
000020 aa 67 3a 3d 62 37 22 3e e1 65 72 bd 12 5e 81 3d
       0.045509018 0.1584144 -0.05917919 0.063167706
000030 17 f9 94 bd 1c 13 07 bd e8 89 a8 3c 17 c6 97 3d
       -0.072740726 -0.03297721 0.020573571 0.074108295
000040 58 bd 05 3e 45 f0 6c bd a7 66 ba bc f2 ac c6 3d
       0.1306051 -0.057846326 -0.022754027 0.097009555
000050 2c 73 b4 b9 59 b0 e9 bd 3f 95 0d be dd 9d 69 be
       -0.00034418085 -0.11410589 -0.13826464 -0.22814126
000060 fe 72 fd bd d6 d3 3f 3d 48 e7 0f 3b a4 fb 7e bd
       -0.12375449 0.046832882 0.0021957923 -0.062251702
000070 d9 c9 f6 3c e7 ec 7e bd 09 05 0d be 0b f1 0b be
       0.030125545 -0.062237646 -0.13771452 -0.1366617
000080 65 45 c5 3d 3b b6 da 3d 26 fc 81 bd 74 de d2 3d
       0.096323766 0.10679289 -0.063469216 0.10296336
000090 dd 92 4d 3d bd 7b 61 3c c5 24 7e 3d 2e 03 10 bd
       0.050188888 0.013762412 0.062046785 -0.035159282
0000a0 76 94 02 be 24 87 29 3d f9 1b 15 3e 3a 88 e9 3d
       -0.12751946 0.041388646 0.14561452 0.11402936
0000b0 8a ce 84 3d 6c 52 f2 bd d5 1a 4f bd 7d 94 ab bd
       0.06484707 -0.11832127 -0.0505627 -0.08377931
0000c0 94 c6 27 3d e3 c5 2a 3e fa 19 59 bd 69 bc 9c b7
       0.040960863 0.1667705 -0.05300329 -1.8684384e-05
0000d0 76 82 21 3e c1 ce 0f 3e c1 94 30 bd 28 76 f7 bd
       0.15772423 0.14043714 -0.043110613 -0.120830834
0000e0 37 ce 00 be e3 3a dd 3d 8e de e5 3d 04 e6 90 bd
       -0.12578665 0.108022474 0.112240896 -0.07075122
0000f0 7a b2 96 be f3 bb f4 3d 27 ca 32 be b9 31 6d 3d
       -0.29433042 0.11949911 -0.17459927 0.057908747
000100 0a f5 fe 3d a9 c1 3a 3e b9 4e 47 be 3d fe 8f 3d
       0.12449081 0.18237938 -0.19463624 0.07030914
000110 fe 47 29 bd 6f 0d 19 3d 19 99 b7 bd 69 5b 13 bd
       -0.041328423 0.037366327 -0.08964748 -0.035975847
000120 e1 46 d7 bd ca 7f 0a 3e 39 5e 10 3e 18 da 69 bd
       -0.10511566 0.1352531 0.14098443 -0.057092756
000130 2e 1e c9 bb e1 66 91 bc 99 72 31 bd c1 ba fe 3c
       -0.006137631 -0.017749252 -0.04332218 0.03109491
000140 f6 8a 10 3d 6e cf 32 3d c9 c3 4f bd b3 76 b5 3d
       0.035288773 0.04365485 -0.050723825 0.08860531
000150 7b e5 f4 bd fd 1b 0c be 4b 8f 13 be 69 2a 32 be
       -0.119578324 -0.13682552 -0.1441013 -0.1739899
000160 d1 2c 07 3e 2f 34 f1 3d 6c fb d1 3d a9 c9 29 bd
       0.1320069 0.11777531 0.10253033 -0.041452084
000170 50 0f bd bc 7f be 36 be 83 dc 61 3e 47 5b 6a bd
       -0.02307859 -0.17846106 0.22056775 -0.057215955
000180 02 b0 0a 3d 3f d5 0f bd 7f 27 fd 3d 03 db 7b bd
       0.03385926 -0.035115477 0.12361049 -0.061488163
000190 a2 30 b4 3c b6 22 a7 3d 2b 69 97 bc c9 10 50 3e
       0.021995846 0.081609175 -0.018482765 0.20318903
0001a0 e3 f8 be bc 9c c1 99 bc 64 f8 9c 3d 30 c2 bc 3d
       -0.023312038 -0.018769078 0.07664564 0.09216726
0001b0 dc f3 fc 3d 0a 4f 31 be 92 8e 08 3e 1c ee 88 bb
       0.123512 -0.17315307 0.13335636 -0.0041787755
0001c0 a7 60 99 3c cd f9 71 bb 2a af 8e 3c c0 0e ac 3d
       0.018722845 -0.0036922575 0.01741751 0.08401251
0001d0 cb d2 6d bd 3a cd b2 3d c6 0b 8c 3d 17 23 b8 bd
       -0.058062356 0.0873055 0.06838183 -0.08991068
0001e0 05 9c c4 bc 40 70 1c 3e 7d d5 06 3e 3d d5 79 bd
       -0.024000177 0.15277195 0.13167377 -0.060994375
0001f0 d2 6a 5e bd ac 54 f6 3d ec ec a5 3d 02 2e 28 bc
       -0.05430109 0.12027869 0.0810183 -0.010264875
000200 2b b4 f7 3c 6e 25 27 3e 97 17 16 bd 06 64 96 3c
       0.030237278 0.16322872 -0.03664359 0.018358242
000210 c7 f6 e1 bd e8 3f 85 3c 37 97 66 3e 17 ad 7e bd
       -0.11033397 0.016265824 0.22518621 -0.06217679
000220 b8 6f b0 bd 35 c2 53 3e a9 5e 4b 3d ab 6c 67 bd
       -0.08615059 0.20679553 0.04965082 -0.05650012
000230 55 e4 f2 bd 32 f9 04 bc 82 01 cb bd e7 bd 7d bd
       -0.11859957 -0.008116053 -0.09912397 -0.061948683
000240 80 47 20 be 30 00 33 bd aa 64 c9 3c a5 b5 14 3d
       -0.15652275 -0.04370135 0.024584133 0.036306042
000250 2e 85 cd bb cb 27 00 be 2a 30 f3 3b f0 bd c5 3d
       -0.00627198 -0.1251518 0.007421513 0.09655368
000260 74 d3 77 bd bb 17 b2 3d ea d1 57 bd fc 55 9c 3d
       -0.06050439 0.086959325 -0.052690424 0.07633588
000270 ca 3d 2c 3e 25 ce 80 bb c8 1c 4e 3e f8 ad f4 3d
       0.16820446 -0.0039308243 0.20128167 0.119472444
000280 7f bb 46 3b 72 be f1 3d 0c bd d7 bc 57 db 60 bd
       0.0030324159 0.11803903 -0.026335262 -0.05489668
000290 67 47 df bd 5a 1e 0b 3e a6 11 81 bd f6 52 ad bd
       -0.10902291 0.13585797 -0.06302194 -0.08463089
0002a0 ff fe db bd fb 3c 27 be 28 63 06 3d a8 a4 16 3d
       -0.10741996 -0.16331856 0.032809407 0.036778122
0002b0 29 4e f2 3d c3 a0 fd bc aa 82 a9 3d 9d aa e1 3d
       0.11831314 -0.030960446 0.08276875 0.1101887
0002c0 d2 55 ff 3d b0 61 a0 3d 61 85 92 3d 23 f9 c2 3d
       0.12467541 0.078311324 0.07154346 0.09520175
0002d0 84 24 ef 3d 69 11 1e 3e bb 24 f5 bd ec f9 13 3d
       0.11676887 0.15436329 -0.119698964 0.036127016
0002e0 17 0a a2 3d 35 b6 06 be d9 25 e1 3d 1a 61 48 3d
       0.07912081 -0.13155444 0.10993547 0.04892073
0002f0 f3 30 0f bc 7b 9b e4 3d c6 04 51 3d ee 00 0d be
       -0.008739698 0.11162468 0.051029943 -0.13769886
000300 8f ed 62 bd 9b 40 a9 bd a7 e3 0c 3e 0a b7 ea 3d
       -0.055402335 -0.08264276 0.13758717 0.11460693
000310 8c 0c ed 3d 35 24 08 be f8 8f 64 3d 7a 7d 7b bd
       0.11574659 -0.13295062 0.05580136 -0.06139896
000320 20 36 2b 3e e8 5f a9 bd 3c 79 3c bd 26 30 7f 3d
       0.16719866 -0.08270246 -0.046014056 0.062301777
000330 e9 06 bb bd e3 62 15 3d 8b a6 48 bd c8 20 16 3e
       -0.091321774 0.03647126 -0.048986953 0.14660943
000340 19 2d 56 bc 8d f5 6d bc 50 5e 70 3c 9c c5 be bd
       -0.013072276 -0.014523876 0.014670923 -0.09315035
000350 ca 93 d6 bc 18 56 f7 bd 70 50 1c bd 1d 2e b1 3d
       -0.026193518 -0.12076968 -0.03816265 0.086513735
000360 86 1a 90 bc 0c f5 d5 3d 1b 82 ac bd 11 ef 00 bd
       -0.017590772 0.104471296 -0.08423253 -0.03147799
000370 6a d8 98 bc 30 ae f9 3d 7e c1 3c bd c9 29 3b bd
       -0.018657882 0.12191427 -0.046082966 -0.045694146
000380 a3 0c d0 bd 2b dc 65 3d fb 51 f4 bc d4 1f 0f 3e
       -0.1015866 0.05611817 -0.029824248 0.13976985
000390 b7 40 33 3d dc 04 73 3d 8d a5 d7 bd 82 f1 aa bd
       0.04376289 0.059330806 -0.10529623 -0.08346845
0003a0 21 0d e4 3d cc b4 a5 3d 3c 69 0b bb 53 84 de 3d
       0.11135317 0.08091125 -0.0021272441 0.108650826
0003b0 16 15 61 3e a5 ef 05 3e a8 2d c1 3c 66 a3 cf 39
       0.219807 0.13079698 0.02358134 0.00039603858
0003c0 b5 a2 ed 3c 6f 36 05 3d a1 33 54 bd 61 fd 71 3d
       0.029008249 0.032522615 -0.05180705 0.05907953
0003d0 7e 2a 62 3e 99 d3 3b 3e f4 01 b7 3d 88 d7 f4 bd
       0.22086522 0.18342437 0.089359194 -0.11955172
0003e0 15 1d 13 be cd c1 ac bd 0a 02 3b 3e c1 96 51 3b
       -0.14366563 -0.08435402 0.18262497 0.0031980725
0003f0 d0 11 60 3c 19 1c ae bc 54 38 82 bc 97 db 1f 3c
       0.013676122 -0.021253632 -0.015896 0.009756944

model.4.bias f4 [64]
000000 14 ac f1 3d a1 13 df bc 7b 21 dc 3d bf 97 23 bd
       0.118003994 -0.02723104 0.107485734 -0.03993964
000010 e6 87 b2 3c 95 be 0c 3e ca de b3 bd d2 c9 98 bd
       0.021793317 0.13744576 -0.08782728 -0.07460369
000020 ad 99 97 3d be b2 07 3e 68 22 fd 3d 8f 05 8a 3c
       0.07402358 0.13251778 0.12360078 0.016848354
000030 69 67 79 3d a6 1f 0d 3d 2f 10 77 bd 6a cc a8 3d
       0.060889635 0.03445401 -0.06031817 0.08242114
000040 1e 4d a6 3c f1 0b fe 3d f0 c2 e4 bd a5 5c 0e 3e
       0.020300444 0.124046214 -0.11169994 0.13902529
000050 3f 25 ec bb c8 c2 e6 3d 4e 44 c4 bc 79 e4 8a bd
       -0.0072065885 0.1126762 -0.023958351 -0.06781859
000060 08 85 ba 3d 57 26 54 bc 71 48 a1 3d 27 49 25 3d
       0.09107405 -0.012948594 0.07875145 0.040352967
000070 94 d6 a1 bd 1e 3f 66 bd 93 79 ca 3d 30 28 1f 3d
       -0.07902256 -0.056212537 0.0988647 0.038856685
000080 23 2c c8 bd e2 e9 be bd d9 20 72 bc ca ba 5f bd
       -0.097740434 -0.09321953 -0.014778339 -0.054621495
000090 f8 3b 56 bc 3c 22 5b 3d 53 8f ba 3c 88 87 ca 3d
       -0.013075821 0.053499445 0.02277342 0.09889132
0000a0 99 cb 10 bd e8 0f f9 3d 83 01 16 bc 3d 79 14 3e
       -0.035350416 0.12161237 -0.009155634 0.14499374
0000b0 ed 03 4b 3d 20 86 f0 3d ac 22 c8 bc 15 86 b5 3d
       0.04956429 0.11744332 -0.024430595 0.08863465
0000c0 90 d3 7c bd 79 e9 e0 bd aa 1c 91 3c ad 81 fb 3d
       -0.0617252 -0.109820314 0.017713863 0.12280593
0000d0 1a 57 84 bd 39 60 20 3d c4 94 88 bc c6 25 ec 3d
       -0.06461926 0.039154265 -0.0166725 0.11530642
0000e0 e6 6b 19 3e 4f 3d dc bd f9 04 d0 3d fc 69 a4 bd
       0.14982566 -0.10753881 0.101571985 -0.080280274
0000f0 c8 3f 92 3c 0e da 2b bc d5 57 c4 3d 36 1c 59 bd
       0.017852679 -0.010489 0.09587065 -0.05300542

model.7.weight f4 [10, 64]
000000 22 35 1a be e5 c8 06 3c 06 40 09 3e 73 76 c6 3c
       -0.15059331 0.008226608 0.13403329 0.024226403
000010 6d 00 91 bb 15 b3 17 be 80 a6 ce bd 6f bf 33 3d
       -0.0044250996 -0.14814408 -0.10090351 0.043883737
000020 18 5f d1 bd 68 de 1a be f2 29 0a be 98 38 92 bd
       -0.10223216 -0.15123904 -0.13492563 -0.07139701
000030 61 6c 35 bd 8c 10 12 be 7f 55 4a be 9e 44 14 3e
       -0.04429281 -0.14264125 -0.19759177 0.144793
000040 b1 3f a0 bd 9b b1 19 bd 40 97 be bb 5c e8 f8 3d
       -0.07824648 -0.037522893 -0.0058163702 0.12153694
000050 94 83 3b bd 63 ec 41 bc 0f 10 da bd 54 89 33 bd
       -0.04577978 -0.011836144 -0.10647594 -0.04383214
000060 b1 c4 00 3e 35 11 86 3b 44 f8 77 3d 8e fc f9 3d
       0.12575032 0.0040914067 0.0605395 0.12206374
000070 15 22 74 3d 55 74 e1 bd 58 84 0a 3e 85 81 3a be
       0.059602816 -0.11008517 0.13527048 -0.1821347
000080 99 b5 1a 3e 57 53 7c 3d 02 c3 c2 3d 37 16 12 3e
       0.15108337 0.061602917 0.09509851 0.14266287
000090 d0 48 bb 3d 78 af 03 bc a0 4b 86 bc 80 44 f2 3d
       0.09144747 -0.0080374405 -0.016393483 0.118294716
0000a0 1c f9 b8 3d 15 7f 71 bc 47 bd d9 3d 9d da e7 bd
       0.09031889 -0.014739771 0.10631805 -0.11320994
0000b0 ed d7 30 be ff d6 0b bd 41 44 59 be 0d 98 76 3d
       -0.17269869 -0.034140583 -0.21217443 0.0602036
0000c0 57 36 a7 bd 96 93 10 3e 96 8b a1 3d aa 67 21 be
       -0.081646614 0.141188 0.07887952 -0.15762201
0000d0 bc 2a 49 3d 29 bd ca bd 60 4d 58 3d 6c a1 4f be
       0.04911302 -0.09899361 0.052808166 -0.20276421
0000e0 03 86 58 be fd 0c eb bd f3 bd 59 bd ff d2 1c 3c
       -0.21144871 -0.11477087 -0.053159665 0.00957179
0000f0 4c 5e 20 3e df e1 1a 3e d0 69 7d bd c4 c4 60 be
       0.15660971 0.15125225 -0.06186849 -0.2195006
000100 63 fa 8c 3d a3 8c 44 be a4 8c e1 bd 29 aa 09 3e
       0.06883695 -0.19194274 -0.11013153 0.13443817
000110 c7 e7 18 3e 57 f6 c8 3d 39 15 16 3e bf 38 1d be
       0.14932166 0.098126106 0.14656533 -0.15353678
000120 b4 ac 67 bd e2 70 3c be e8 7f 59 be ce 07 b6 bd
       -0.056561187 -0.18402436 -0.21240199 -0.088882074
000130 1b f4 2d be 18 49 bf bc 8f 6f 1a 3e 89 ec d8 3d
       -0.1698765 -0.023350284 0.15081619 0.105919905
000140 d4 04 cf bd c0 71 48 be 86 de 3c 3d 01 fd 02 be
       -0.10108343 -0.19574642 0.046110652 -0.12791826
000150 24 c2 84 3d 52 b0 31 bb 29 11 18 3e 0a 30 3f 3e
       0.06482342 -0.0027113152 0.14850296 0.18670669
000160 29 dd 29 be 91 f8 aa bd 9e 29 3a be 35 a3 87 3d
       -0.16588272 -0.083481915 -0.18179938 0.06622926
000170 97 d5 f6 3d 47 d7 98 3a 07 a4 21 bd c7 c3 82 3d
       0.12052458 0.0011660837 -0.03946307 0.06384998
000180 38 26 2e be d8 81 5e be 00 26 05 be 7c 86 a0 bd
       -0.17006767 -0.21729219 -0.13002777 -0.07838151
000190 e6 4d 47 bc 6c 7c 10 be e9 f8 7c 3d 83 17 48 3e
       -0.0121645685 -0.14109963 0.061760817 0.19540219
0001a0 dc 9f d3 3d 63 25 34 be 1f 61 36 3d f5 6b db 3d
       0.10333225 -0.17592387 0.044526216 0.107139505
0001b0 d9 9e 18 3e 49 40 36 be 66 0b 16 bd 08 13 31 be
       0.14904346 -0.1779796 -0.036631964 -0.17292416
0001c0 87 6e 0f 3e e8 2b bd bd 93 c2 07 3d 6d 59 10 3c
       0.14007007 -0.0923689 0.033144545 0.008810383
0001d0 27 a5 03 be 02 c0 00 3e a3 26 30 3e c7 a1 a5 bc
       -0.1285597 0.12573245 0.17202239 -0.020218743
0001e0 10 2b 1d 3e 96 92 1d bd 64 65 4b be e9 b2 e3 3c
       0.15348458 -0.038469873 -0.19862896 0.027795272
0001f0 13 3c 1c bd 0e 1b 25 be b6 0e 1f 3e 1e 6c d2 3d
       -0.03814323 -0.16123602 0.15532956 0.10274528
000200 04 0a 95 bd 43 df 87 bd 08 d2 04 3e 21 08 22 3e
       -0.07277301 -0.06634381 0.12970746 0.15823413
000210 35 66 8f bd a7 b7 0e 3e 51 21 8a bd fa 8c fb bd
       -0.07001916 0.13937245 -0.06744636 -0.122827485
000220 7b 27 9c 3c 4b 9a e8 3d 47 05 c2 3d f2 32 16 3e
       0.019061795 0.11357554 0.09473663 0.14667872
000230 9e dd 94 3d ed b3 84 3d d1 99 a6 3d 6f 9e 53 bb
       0.072688326 0.064796306 0.08134807 -0.0032290479
000240 18 e0 48 bd f3 0b 08 be a5 02 01 3e 69 b7 dc 3d
       -0.049041837 -0.13285808 0.12598665 0.1077717
000250 85 f4 2a bd 92 d3 11 be fc 31 b5 bd 34 73 fe 3d
       -0.0417371 -0.14240864 -0.088474244 0.12424317
000260 47 13 1b 3e 06 37 82 bc 4d be ce 3c af 12 80 3d
       0.15144072 -0.015895378 0.025237227 0.062535636
000270 27 44 f4 3d 35 f3 69 bc f2 72 2c 3e 77 88 43 bd
       0.119270615 -0.0142791765 0.16840723 -0.047737565
000280 51 04 03 be ca 9c 24 3d a5 d0 cf bd 46 d5 25 3e
       -0.12794615 0.04018859 -0.10147218 0.16194639
000290 4b 68 03 3e c3 25 ae 3d b4 b4 4a be ec c5 1a be
       0.12832753 0.08503296 -0.19795495 -0.15114564
0002a0 6c 03 16 be 6c 62 48 be b1 82 26 bd f1 a9 2c be
       -0.14649743 -0.19568795 -0.04065198 -0.16861703
0002b0 1e 33 ba bd 5d 83 c3 3c 7f b8 b5 bc 98 e1 94 bc
       -0.09091781 0.02386635 -0.022182701 -0.018173978
0002c0 af 13 20 3e 8e f1 b6 bd 70 19 e5 3d fa 50 21 3e
       0.15632509 -0.08932792 0.111864924 0.15753546
0002d0 57 b2 61 bd 5f cd 32 be e9 f7 17 be 16 7f c4 3d
       -0.05510172 -0.17461155 -0.14840664 0.09594552
0002e0 29 a3 1b 3e de 58 d8 bc e8 8d 2b be 28 0d a0 bc
       0.1519896 -0.026409563 -0.16753352 -0.019537523
0002f0 80 83 82 3d 90 5b 37 be 9e ac 02 be 67 a9 23 be
       0.06372738 -0.17906022 -0.1276116 -0.1598259
000300 62 6c b7 3d 58 4c b3 3d e7 4e 12 3e 0b 7d 94 3d
       0.08956219 0.08754796 0.14287911 0.072504126
000310 82 76 89 bd 2e a2 86 3d ce cb 8e 3b cf 73 fa 3b
       -0.06712057 0.06573902 0.0043577915 0.0076432
000320 72 fb 11 be dc 5a ed 3d 12 22 75 3d a8 60 13 bc
       -0.14256075 0.11589596 0.059846945 -0.008995213
000330 b7 ea 38 be a8 e1 11 3e 37 73 83 3c 1a e9 3e bd
       -0.18058287 0.14246237 0.01604615 -0.04660902
000340 5b 67 18 3e 1b 22 2b be d3 0d 37 be 75 99 28 3d
       0.14883177 -0.16712229 -0.17876367 0.041161973
000350 cf 5a 0f be d1 29 00 bd 3f a2 c2 3c af 7a 31 bc
       -0.13999484 -0.03128988 0.023759006 -0.010832473
000360 eb a8 95 bd 73 0b 0b be 6f 5e 92 3c eb 19 ce bd
       -0.07307609 -0.13578586 0.017867295 -0.10063537
000370 df 92 08 be 41 35 28 be c7 d8 f3 3d b3 0b 28 3e
       -0.13337277 -0.16426565 0.11906581 0.16410713
000380 70 67 82 3d 73 a7 68 bd fd bb 54 be 02 43 ce bc
       0.063673854 -0.056800317 -0.20774837 -0.025178436
000390 2b f1 0e 3e 82 62 4d 3b ed d5 b5 3b 57 28 f5 bc
       0.13959186 0.0031339233 0.0055491836 -0.029926462
0003a0 80 9e 08 be 69 70 3f be 03 bc ce 3d 25 18 b2 bd
       -0.13341713 -0.18695225 0.10094454 -0.086960115
0003b0 30 5a fe bc c2 f1 e0 3d ec e9 0d 3e b3 98 e8 3c
       -0.031048864 0.10983612 0.13858765 0.028393125
0003c0 33 e2 db 3c 9b b6 2b be 50 87 d4 3d d0 b7 c4 bd
       0.026841259 -0.16768877 0.10377371 -0.09605372
0003d0 3b 2a 57 bd 0b 7b 50 3e 29 67 85 3d 02 14 10 3e
       -0.05253051 0.20359437 0.06513817 0.14070132
0003e0 be e5 a1 bd 56 ec 45 3d 83 f6 82 3d af 2a c6 3c
       -0.07905148 0.04832109 0.06394675 0.024190275
0003f0 76 f1 70 bd d4 83 87 3c 6b 9a 27 3e 58 0c 1c 3d
       -0.058824025 0.016542353 0.163675 0.03809771

model.7.bias f4 [10]
000000 ed 31 ef bd da a8 c9 bd 2a 2f c9 bc fc ba 13 bd
       -0.116794445 -0.09846659 -0.024558622 -0.036066994
000010 93 4c d5 bd 9c 25 ed 3d d6 b0 5f bd fc e5 54 3b
       -0.10414996 0.11579439 -0.054612003 0.0032485714
000020 7d 41 84 3d 47 a2 85 bd
       0.064578034 -0.065250926

exp_avg f4 [64, 784]
000000 14 b5 ae b9 14 b5 ae b9 14 b5 ae b9 14 b5 ae b9
       -0.0003332278 -0.0003332278 -0.0003332278 -0.0003332278
000010 14 b5 ae b9 14 b5 ae b9 14 b5 ae b9 14 b5 ae b9
       -0.0003332278 -0.0003332278 -0.0003332278 -0.0003332278
000020 14 b5 ae b9 14 b5 ae b9 14 b5 ae b9 14 b5 ae b9
       -0.0003332278 -0.0003332278 -0.0003332278 -0.0003332278
000030 14 b5 ae b9 14 b5 ae b9 14 b5 ae b9 14 b5 ae b9
       -0.0003332278 -0.0003332278 -0.0003332278 -0.0003332278
000040 14 b5 ae b9 14 b5 ae b9 14 b5 ae b9 14 b5 ae b9
       -0.0003332278 -0.0003332278 -0.0003332278 -0.0003332278
000050 14 b5 ae b9 14 b5 ae b9 14 b5 ae b9 14 b5 ae b9
       -0.0003332278 -0.0003332278 -0.0003332278 -0.0003332278
000060 14 b5 ae b9 14 b5 ae b9 14 b5 ae b9 14 b5 ae b9
       -0.0003332278 -0.0003332278 -0.0003332278 -0.0003332278
000070 14 b5 ae b9 14 b5 ae b9 14 b5 ae b9 14 b5 ae b9
       -0.0003332278 -0.0003332278 -0.0003332278 -0.0003332278
000080 14 b5 ae b9 14 b5 ae b9 14 b5 ae b9 14 b5 ae b9
       -0.0003332278 -0.0003332278 -0.0003332278 -0.0003332278
000090 b4 69 4a b9 cd 47 9e b9 ee 0b b2 b9 7d 52 b4 b9
       -0.00019303599 -0.00030189604 -0.00033959694 -0.00034393734
0000a0 f9 6f ae b9 57 7c ae b9 f4 c5 ad b9 8d 19 ad b9
       -0.00033271292 -0.00033280507 -0.00033144618 -0.00033016168
0000b0 88 7a ae b9 46 b1 ae b9 d6 b2 ae b9 58 a2 ae b9
       -0.0003327916 -0.00033319945 -0.0003332111 -0.00033308822
0000c0 5a 13 ae b9 b4 a6 ae b9 14 b5 ae b9 14 b5 ae b9
       -0.00033202284 -0.0003331207 -0.0003332278 -0.0003332278
0000d0 14 b5 ae b9 14 b5 ae b9 14 b5 ae b9 14 b5 ae b9
       -0.0003332278 -0.0003332278 -0.0003332278 -0.0003332278
0000e0 14 b5 ae b9 14 b5 ae b9 14 b5 ae b9 14 b5 ae b9
       -0.0003332278 -0.0003332278 -0.0003332278 -0.0003332278
0000f0 4c b5 ae b9 66 b5 ae b9 14 b5 ae b9 13 b5 ae b9
       -0.00033322943 -0.0003332302 -0.0003332278 -0.00033322777
000100 b4 69 4a b9 f6 b9 86 b9 e5 9f b8 b9 95 79 b9 b9
       -0.00019303599 -0.00025697023 -0.00035214346 -0.00035376535
000110 d6 cf ae b9 8e e7 a1 b9 e0 6c a0 b9 c8 6c a9 b9
       -0.00033342716 -0.00030880835 -0.00030598696 -0.0003231524
000120 3c 64 b0 b9 1b 59 b2 b9 38 5f b3 b9 6a 59 b4 b9
       -0.00033644016 -0.00034017194 -0.00034212484 -0.00034398894
000130 69 93 b3 b9 8e 18 b2 b9 58 7c b1 b9 78 ff af b9
       -0.0003425137 -0.000339691 -0.00033852714 -0.0003356894
000140 13 b5 ae b9 14 b5 ae b9 14 b5 ae b9 14 b5 ae b9
       -0.00033322777 -0.0003332278 -0.0003332278 -0.0003332278
000150 14 b5 ae b9 14 b5 ae b9 9a c0 a9 b9 ba 86 ad b9
       -0.0003332278 -0.0003332278 -0.0003237769 -0.0003309751
000160 48 b5 ae b9 83 c7 ae b9 12 f8 ae b9 4f b3 ad b9
       -0.0003332293 -0.00033336514 -0.00033372693 -0.00033130727
000170 8c 3c 72 b8 0d 92 53 36 ca d2 8a b9 20 8a a9 b9
       -5.7753685e-05 3.1526463e-06 -0.0002647846 -0.00032337103
000180 61 c5 c1 b9 f9 54 dd b9 93 3d d6 b9 90 03 88 b9
       -0.00036958887 -0.00042215714 -0.00040863137 -0.00025942596
000190 98 2a 7a b9 3d 3f a2 b9 b2 e7 dc b9 51 b3 d9 b9
       -0.00023857725 -0.00030946164 -0.00042134296 -0.00041523066
0001a0 65 ed d7 b9 42 db c6 b9 4f 3d ae b9 43 ef b4 b9
       -0.00041184868 -0.00037928863 -0.00033233545 -0.0003451054
0001b0 00 eb b1 b9 14 b5 ae b9 14 b5 ae b9 14 b5 ae b9
       -0.0003393516 -0.0003332278 -0.0003332278 -0.0003332278
0001c0 14 b5 ae b9 14 b5 ae b9 9a b9 9d b9 fa 93 aa b9
       -0.0003332278 -0.0003332278 -0.00030083657 -0.00032535178
0001d0 db b4 ae b9 ec 0c af b9 54 a5 b2 b9 68 33 b3 b9
       -0.00033322614 -0.0003338823 -0.00034073985 -0.0003417984
0001e0 42 ff 0c 38 c3 98 cb 38 17 fc 54 b9 c4 0e 69 b9
       3.361633e-05 9.7082484e-05 -0.00020311806 -0.00022226112
0001f0 e4 1a 65 b9 76 77 c2 b9 95 c8 ce b9 49 c2 bd b9
       -0.0002184916 -0.0003709157 -0.00039440827 -0.00036193643
000200 13 b2 bc b9 e9 c0 d2 b9 cd cf f1 b9 34 73 e0 b9
       -0.0003599083 -0.0004019805 -0.00046121926 -0.00042810442
000210 24 69 c7 b9 28 ad d6 b9 a6 c5 e9 b9 b2 d4 c2 b9
       -0.00038034574 -0.00040946272 -0.00044588483 -0.00037161034
000220 c5 37 be b9 ea 93 b2 b9 f0 be ae b9 14 b5 ae b9
       -0.00036281176 -0.0003406101 -0.00033330126 -0.0003332278
000230 14 b5 ae b9 14 b5 ae b9 fd 58 ac b9 1a f9 ad b9
       -0.0003332278 -0.0003332278 -0.00032872698 -0.00033182726
000240 3e dd af b9 03 7f ac b9 c8 23 a7 b9 ff 30 9b b9
       -0.0003354344 -0.00032901028 -0.0003187938 -0.0002960041
000250 81 6e c2 b8 98 1c 3a b9 fd 86 d0 b9 d8 f4 14 ba
       -9.271224e-05 -0.00017748994 -0.00039773426 -0.00056822365
000260 ed 3c fc b9 e0 a2 e1 b9 2a 66 20 b9 d5 69 ae b8
       -0.0004811058 -0.00043036696 -0.00015296848 -8.316679e-05
000270 44 a4 e5 39 b5 d3 ad 39 0f fe f3 38 a5 0d 0c 38
       0.0004380067 0.00033154865 0.00011634465 3.339131e-05
000280 1a 83 cc b9 18 24 07 ba c7 ca 01 ba a9 c8 e3 b9
       -0.0003900759 -0.00051552197 -0.00049511757 -0.00043446317
000290 57 42 b3 b9 61 bb ad b9 84 c4 ae b9 16 b5 ae b9
       -0.00034190968 -0.0003313674 -0.00033334282 -0.00033322786
0002a0 14 b5 ae b9 14 b5 ae b9 7b ec ad b9 fb 36 aa b9
       -0.0003332278 -0.0003332278 -0.00033173323 -0.0003246589
0002b0 5b 0c 83 b9 1f 49 17 b9 71 ac e8 b8 d1 fc 30 b9
       -0.00024995473 -0.00014427722 -0.00011094742 -0.0001687885
0002c0 fc c1 20 38 ff 57 d9 35 ec ea c4 b8 91 15 22 36
       3.8327635e-05 1.619337e-06 -9.389766e-05 2.4152434e-06
0002d0 71 54 08 3a 59 66 0a 3a d3 11 38 3a 4c ec 85 3a
       0.0005200571 0.0005279533 0.0007021699 0.0010217517
0002e0 8e 07 36 3a db ca 22 3a bd 97 17 3a 80 b7 fd 39
       0.0006943875 0.00062100374 0.00057828036 0.0004839264
0002f0 30 6b fc 37 b7 35 e3 b9 5b 24 00 ba 28 34 eb b9
       3.0090654e-05 -0.00043336835 -0.000488823 -0.00044861552
000300 de 8e a7 b9 d6 96 a3 b9 15 96 ae b9 b5 a3 ae b9
       -0.00031959167 -0.00031202164 -0.00033299686 -0.00033309837
000310 14 b5 ae b9 43 b5 ae b9 02 ec ac b9 f6 f8 97 b9
       -0.0003332278 -0.00033322917 -0.00032982236 -0.00028986455
000320 96 39 8c b9 10 9f ae b8 d4 a6 c2 b8 4c a9 c9 b5
       -0.00026745786 -8.326594e-05 -9.281715e-05 -1.5024939e-06
000330 64 eb b0 39 75 09 38 39 22 ac 0a 3a 73 c1 37 3a
       0.00033744716 0.0001755113 0.0005289932 0.0007009722
000340 dd 0b 41 3a 0f 20 5d 3a 52 3a 5c 3a bb 6e 75 3a
       0.00073641335 0.0008435258 0.00084010244 0.00093625084
000350 e1 5e 29 3a 2c b2 1e 3a 70 41 58 3a 02 91 3c 3a
       0.00064609764 0.00060537714 0.0008249497 0.00071932387
000360 4e 8c bf 39 33 8d fe 38 36 75 73 b9 3e 20 b2 b9
       0.00036534894 0.00012137964 -0.0002321795 -0.00033974828
000370 78 9d 81 b9 d2 c5 a0 b9 80 08 ae b9 6d 9a ae b9
       -0.0002472212 -0.00030664966 -0.000331942 -0.00033302922
000380 14 b5 ae b9 7c a8 ae b9 36 b8 ab b9 ed 4f a8 b9
       -0.0003332278 -0.00033313397 -0.0003275291 -0.00032103006
000390 f2 eb 9c b9 a5 6f 28 b9 25 d8 5f b9 ab 85 69 b8
       -0.00029930432 -0.0001606332 -0.00021347457 -5.5676017e-05
0003a0 46 2b 13 39 6d 49 f4 36 69 8b 45 39 63 94 34 39
       0.00014035133 7.2803145e-06 0.00018839318 0.00017221416
0003b0 12 9d 17 3a f3 e5 95 3a a0 b1 b1 3a d9 ad 4a 3a
       0.0005783598 0.0011436328 0.0013556965 0.0007731594
0003c0 ce d8 ad 39 74 72 02 3a 00 c9 3f 3a 95 76 a7 3a
       0.00033158663 0.0004976161 0.0007316023 0.0012776429
0003d0 9b 61 12 3a e7 b8 98 38 df 48 5f b9 79 fb 35 b9
       0.00055840024 7.2823656e-05 -0.00021294084 -0.00017355186
0003e0 24 98 56 b9 f0 9f 88 b9 90 38 af b9 25 b5 ae b9
       -0.00020465307 -0.00026059104 -0.00033420743 -0.0003332283
0003f0 14 b5 ae b9 d3 a3 ae b9 64 ee ad b9 10 6b c4 b9
       -0.0003332278 -0.00033309925 -0.00033174746 -0.000374638

exp_avg_sq f4 [64, 784]
000000 f5 a9 27 35 f5 a9 27 35 f5 a9 27 35 f5 a9 27 35
       6.245967e-07 6.245967e-07 6.245967e-07 6.245967e-07
000010 f5 a9 27 35 f5 a9 27 35 f5 a9 27 35 f5 a9 27 35
       6.245967e-07 6.245967e-07 6.245967e-07 6.245967e-07
000020 f5 a9 27 35 f5 a9 27 35 f5 a9 27 35 f5 a9 27 35
       6.245967e-07 6.245967e-07 6.245967e-07 6.245967e-07
000030 1f a6 27 35 03 aa 27 35 61 b1 27 35 3c aa 27 35
       6.2454086e-07 6.245975e-07 6.247047e-07 6.246007e-07
000040 f5 a9 27 35 f5 a9 27 35 f5 a9 27 35 f5 a9 27 35
       6.245967e-07 6.245967e-07 6.245967e-07 6.245967e-07
000050 f5 a9 27 35 f5 a9 27 35 f5 a9 27 35 f5 a9 27 35
       6.245967e-07 6.245967e-07 6.245967e-07 6.245967e-07
000060 f5 a9 27 35 f5 a9 27 35 f5 a9 27 35 f5 a9 27 35
       6.245967e-07 6.245967e-07 6.245967e-07 6.245967e-07
000070 f5 a9 27 35 f5 a9 27 35 f5 a9 27 35 f5 a9 27 35
       6.245967e-07 6.245967e-07 6.245967e-07 6.245967e-07
000080 f8 a9 27 35 d3 a9 27 35 ed 6b 27 35 ac 7f 27 35
       6.2459685e-07 6.2459475e-07 6.23694e-07 6.2398135e-07
000090 88 b5 26 35 38 43 27 35 83 a9 27 35 e2 64 27 35
       6.210398e-07 6.2310164e-07 6.245902e-07 6.235915e-07
0000a0 52 3e 27 35 18 97 27 35 6b 21 28 35 25 17 28 35
       6.2303036e-07 6.243222e-07 6.2633507e-07 6.2618557e-07
0000b0 ae 0d 27 35 8d 7b 27 35 77 a9 27 35 a9 bf 27 35
       6.2232255e-07 6.239214e-07 6.245895e-07 6.249125e-07
0000c0 0c c5 27 35 f3 a7 27 35 e5 a9 27 35 84 a9 27 35
       6.249909e-07 6.2456746e-07 6.2459577e-07 6.2459026e-07
0000d0 f5 a9 27 35 f5 a9 27 35 f5 a9 27 35 f5 a9 27 35
       6.245967e-07 6.245967e-07 6.245967e-07 6.245967e-07
0000e0 f5 a9 27 35 f5 a9 27 35 5a a9 27 35 51 ae 27 35
       6.245967e-07 6.245967e-07 6.2458787e-07 6.246601e-07
0000f0 2c ab 27 35 b1 ab 27 35 4e b0 27 35 74 84 27 35
       6.2461436e-07 6.246219e-07 6.2468905e-07 6.240509e-07
000100 d3 8a 26 35 7c 74 27 35 62 7d 2b 35 04 79 29 35
       6.2041835e-07 6.2381855e-07 6.388492e-07 6.3133507e-07
000110 25 71 27 35 62 fc 2a 35 09 03 2f 35 35 11 2d 35
       6.2376995e-07 6.36972e-07 6.5196997e-07 6.447256e-07
000120 cb f5 2a 35 fb 6b 27 35 80 f6 26 35 8b 59 28 35
       6.368761e-07 6.236948e-07 6.2198524e-07 6.271518e-07
000130 51 7b 27 35 c7 4f 27 35 fd 01 27 35 45 52 27 35
       6.2391797e-07 6.232844e-07 6.221524e-07 6.2332066e-07
000140 b1 b4 27 35 32 b1 27 35 f5 a9 27 35 f5 a9 27 35
       6.247529e-07 6.24702e-07 6.245967e-07 6.245967e-07
000150 f5 a9 27 35 f5 a9 27 35 f9 98 27 35 2d a4 27 35
       6.245967e-07 6.245967e-07 6.243495e-07 6.2451255e-07
000160 86 59 27 35 50 67 27 35 69 a8 27 35 ab a4 27 35
       6.234262e-07 6.236269e-07 6.2457417e-07 6.245197e-07
000170 e7 43 27 35 26 ba 2c 35 df 62 39 35 6a 82 40 35
       6.231116e-07 6.4345875e-07 6.9061747e-07 7.171535e-07
000180 de fa 4d 35 9e 91 76 35 8d 48 98 35 11 f7 ac 35
       7.673351e-07 9.185404e-07 1.1345998e-06 1.2886904e-06
000190 dc 0a ac 35 22 5e 99 35 1f dd 84 35 a5 93 74 35
       1.2818159e-06 1.1426785e-06 9.899121e-07 9.1111934e-07
0001a0 cb af 52 35 8c 74 3c 35 13 9a 33 35 79 90 2f 35
       7.848691e-07 7.0205056e-07 6.6906904e-07 6.5402816e-07
0001b0 79 41 2b 35 7f bc 27 35 ad ad 27 35 f5 a9 27 35
       6.379774e-07 6.2486646e-07 6.246508e-07 6.245967e-07
0001c0 f5 a9 27 35 8f a8 27 35 01 7c 27 35 14 7b 27 35
       6.245967e-07 6.2457633e-07 6.23928e-07 6.239145e-07
0001d0 db 63 27 35 1f f8 2f 35 12 5f 30 35 d6 10 3d 35
       6.2357657e-07 6.5553644e-07 6.5703455e-07 7.0432486e-07
0001e0 20 27 49 35 85 46 86 35 bb f1 b6 35 22 c0 f2 35
       7.493527e-07 1.0004302e-06 1.363041e-06 1.8086323e-06
0001f0 0c ea 1e 36 13 2a 57 36 2c ab 74 36 c5 3f 78 36
       2.3680068e-06 3.2061987e-06 3.6458468e-06 3.6991999e-06
000200 8f 23 68 36 9d dd 41 36 43 12 12 36 73 e7 ed 35
       3.4591392e-06 2.8888237e-06 2.1766325e-06 1.7725237e-06
000210 d0 7d bf 35 47 06 83 35 64 b4 61 35 24 51 3b 35
       1.4267225e-06 9.762088e-07 8.4081535e-07 6.9781004e-07
000220 ad 07 2f 35 fc ba 28 35 ce ab 27 35 91 aa 27 35
       6.520375e-07 6.2856975e-07 6.2462357e-07 6.2460555e-07
000230 f5 a9 27 35 f5 a9 27 35 26 8d 27 35 b5 63 28 35
       6.245967e-07 6.245967e-07 6.2417746e-07 6.272997e-07
000240 e5 0f 2f 35 da 1c 43 35 9b f9 43 35 ea 5d 66 35
       6.521571e-07 7.2685145e-07 7.3006385e-07 8.581834e-07
000250 26 6d b5 35 d1 77 03 36 72 48 48 36 97 68 88 36
       1.3517317e-06 1.9590263e-06 2.984449e-06 4.0652917e-06
000260 95 2a a8 36 7e 74 d5 36 18 7c 07 37 25 e5 0c 37
       5.0117474e-06 6.361456e-06 8.07552e-06 8.398002e-06
000270 b3 dd fc 36 4f e5 e9 36 29 b8 bc 36 d8 c0 82 36
       7.5359944e-06 6.970636e-06 5.6242757e-06 3.896752e-06
000280 80 27 32 36 aa 53 ed 35 34 bd a8 35 24 a4 64 35
       2.654706e-06 1.7682225e-06 1.2572041e-06 8.5175475e-07
000290 8e 97 31 35 5d 84 28 35 bf b6 27 35 08 a9 27 35
       6.615818e-07 6.277749e-07 6.247828e-07 6.245832e-07
0002a0 f5 a9 27 35 c7 aa 27 35 31 3f 29 35 d7 89 2d 35
       6.245967e-07 6.246086e-07 6.304936e-07 6.4648106e-07
0002b0 03 af 35 35 c7 01 53 35 64 18 83 35 76 35 bd 35
       6.768243e-07 7.860621e-07 9.767359e-07 1.4097157e-06
0002c0 bc 5e 14 36 eb 8e 61 36 e1 92 b3 36 b7 8a d8 36
       2.2108861e-06 3.3610802e-06 5.3517147e-06 6.45345e-06
0002d0 67 c4 09 37 cf 4b 31 37 30 fd 4a 37 ed aa 56 37
       8.211565e-06 1.0567673e-05 1.2099088e-05 1.2795191e-05
0002e0 ac c3 42 37 f2 94 29 37 e6 1e 11 37 2d c5 d6 36
       1.16088595e-05 1.0107864e-05 8.649868e-06 6.4006513e-06
0002f0 ac e1 93 36 a5 7d 2e 36 8b f2 f1 35 71 37 8a 35
       4.407213e-06 2.6001155e-06 1.8026489e-06 1.0297937e-06
000300 ed 71 44 35 66 34 2b 35 e7 06 27 35 18 89 27 35
       7.3181474e-07 6.3778714e-07 6.222239e-07 6.2411846e-07
000310 f5 a9 27 35 08 c4 27 35 e3 e7 27 35 95 a5 2a 35
       6.245967e-07 6.249761e-07 6.254979e-07 6.357089e-07
000320 f0 1e 39 35 5e 7f 6f 35 da 1e b2 35 0b ba 09 36
       6.896289e-07 8.921978e-07 1.3271012e-06 2.0522882e-06
000330 95 f6 56 36 e4 7d a2 36 e1 ae e4 36 85 ca 13 37
       3.2032015e-06 4.842632e-06 6.815288e-06 8.8090355e-06
000340 45 ef 38 37 89 98 5a 37 4b e1 6f 37 65 95 70 37
       1.1022964e-05 1.3029327e-05 1.4297965e-05 1.4339898e-05
000350 6e 9d 5e 37 f7 21 38 37 a2 46 1d 37 4a 6f ee 36
       1.3268886e-05 1.0975163e-05 9.374375e-06 7.1059085e-06
000360 c2 8f c0 36 c7 e6 6d 36 c8 4d 11 36 a6 8b a4 35
       5.7387815e-06 3.5450082e-06 2.1651958e-06 1.2259595e-06
000370 be f9 4d 35 10 1a 2d 35 0f ef 25 35 d0 72 27 35
       7.6731874e-07 6.448545e-07 6.1815166e-07 6.237942e-07
000380 4b be 27 35 91 55 28 35 fd 76 26 35 a9 f3 29 35
       6.248926e-07 6.270939e-07 6.201297e-07 6.331198e-07
000390 d2 a4 5e 35 f3 de 8e 35 b6 00 db 35 3a 56 2f 36
       8.294129e-07 1.0644711e-06 1.6316978e-06 2.6127223e-06
0003a0 cc c2 81 36 e9 16 aa 36 ff cf 03 37 ec 25 2c 37
       3.867177e-06 5.069062e-06 7.856636e-06 1.0260828e-05
0003b0 c2 93 38 37 60 ac 3d 37 ba 5c 3c 37 f4 0e 3f 37
       1.1001657e-05 1.1305412e-05 1.1227263e-05 1.1387969e-05
0003c0 96 06 43 37 5f 30 39 37 b9 e2 1f 37 79 17 05 37
       1.1624439e-05 1.1038122e-05 9.5299265e-06 7.932883e-06
0003d0 3a 72 d5 36 e3 b7 88 36 e7 93 19 36 cf ed ab 35
       6.3611924e-06 4.074523e-06 2.2884867e-06 1.2809704e-06
0003e0 28 0f 5f 35 11 60 2a 35 61 2f 25 35 c1 76 27 35
       8.309603e-07 6.346973e-07 6.1536235e-07 6.238516e-07
0003f0 1b a7 27 35 04 c1 28 35 dc dc 29 35 a3 65 30 35
       6.245552e-07 6.286575e-07 6.32788e-07 6.571301e-07

exp_avg f4 [64]
000000 61 da 4d 3a ef bb 27 b6 7e 1c 42 39 58 c6 13 ba
       0.00078526704 -2.499433e-06 0.00018511896 -0.00056371605
000010 46 93 dc b8 df 41 7b 38 3f 4d 20 b9 73 ab 9f b9
       -0.00010517849 5.990441e-05 -0.00015287565 -0.00030454583
000020 64 ab b9 38 90 d7 2c 3a 08 97 4f 3a bf 06 03 b5
       8.8534114e-05 0.00065934006 0.0007918929 -4.881112e-07
000030 5f 6f 4a ba 74 54 8e b9 1d 90 2b ba 0e ec 7f 37
       -0.0007722284 -0.00027147273 -0.0006544607 1.5254145e-05
000040 0f 74 83 b8 46 78 d0 37 4e 7e 47 b9 c2 c8 b6 b8
       -6.2681844e-05 2.4851539e-05 -0.00019025171 -8.71583e-05
000050 9c c0 da b7 c0 67 59 39 91 c4 b1 39 d6 b3 87 b9
       -2.6077316e-05 0.00020733383 0.00033906524 -0.00025883195
000060 86 a0 71 b9 b9 bf 2c 38 48 97 6a b9 bc 1b d6 38
       -0.0002304335 4.118655e-05 -0.00022372336 0.00010209481
000070 2a 09 95 39 0f 37 59 ba 37 60 ab 3a 39 98 11 b9
       0.00028426322 -0.00082860974 0.0013074939 -0.00013884985
000080 e7 b3 6b b9 40 c4 72 b8 1b 67 b1 b8 5d c8 79 39
       -0.00022478365 -5.788007e-05 -8.4592226e-05 0.00023821132
000090 65 b3 0c b9 c5 4d 13 3a c8 9e ee b8 19 77 96 b9
       -0.0001341827 0.00056191935 -0.000113783 -0.00028698964
0000a0 72 87 45 ba 36 5e 47 39 c7 80 cd b9 09 09 c2 b9
       -0.00075351365 0.00019013215 -0.00039196594 -0.00037009295
0000b0 52 bc 73 ba b1 d3 cc b8 d4 d2 30 3a e9 f7 8a 39
       -0.0009297776 -9.7669086e-05 0.0006745283 0.0002650612
0000c0 f6 8c 06 ba e8 d1 b4 b9 b4 e3 59 b9 98 57 23 3a
       -0.0005132699 -0.00034488668 -0.00020779559 0.0006231009
0000d0 5f bc 15 ba e7 4f fe 38 e5 9a de 39 20 2c c0 39
       -0.00057119684 0.00012126547 0.00042458545 0.0003665397
0000e0 fb 4e 86 37 32 58 c6 39 a9 82 d0 38 3b 84 e0 b7
       1.6010823e-05 0.00037831214 9.94255e-05 -2.6764455e-05
0000f0 05 9b e3 39 bb 64 cf 39 3f 58 45 39 da c3 1a 39
       0.00043412313 0.00039557167 0.00018820258 0.00014759545

exp_avg_sq f4 [64]
000000 70 ce 68 36 e2 fc 89 36 a4 2a 91 36 19 bd 62 36
       3.4690856e-06 4.1123576e-06 4.3263008e-06 3.3786694e-06
000010 65 70 7a 36 43 fc 3a 36 1c 0b 57 36 9a 49 7f 36
       3.7318325e-06 2.7862995e-06 3.2043963e-06 3.8040803e-06
000020 22 d8 8c 36 b0 49 56 36 a5 49 55 36 65 f4 07 36
       4.1974863e-06 3.1931377e-06 3.178234e-06 2.0258824e-06
000030 c2 8a 59 36 72 e3 92 36 73 fd d9 36 6b ba f3 35
       3.2416287e-06 4.377617e-06 6.4966093e-06 1.8159166e-06
000040 37 45 0c 36 48 a7 ab 36 d0 95 75 36 66 2a 6b 36
       2.0901914e-06 5.1156712e-06 3.6595047e-06 3.5042408e-06
000050 d9 1c 03 36 9c bc be 36 ce dd 80 36 ea 55 c1 36
       1.9537313e-06 5.6843983e-06 3.8405187e-06 5.76185e-06
000060 50 59 c8 36 f3 ee 44 36 57 84 6e 36 f2 53 2d 36
       5.970862e-06 2.9345363e-06 3.5541796e-06 2.5827871e-06
000070 f1 2c 24 36 58 9c 67 36 9a 30 a3 36 8c 59 7a 36
       2.4464064e-06 3.4512686e-06 4.8634365e-06 3.7305026e-06
000080 40 a2 8b 36 17 80 e3 36 b0 6e 6d 36 9a b1 83 36
       4.161411e-06 6.780039e-06 3.538018e-06 3.92478e-06
000090 30 b0 cf 36 35 b4 3b 36 3d 43 5d 36 84 81 81 36
       6.1895917e-06 2.7970066e-06 3.2970704e-06 3.859577e-06
0000a0 8f 87 1d 36 5a 20 43 36 34 ff 8c 36 36 18 5f 36
       2.3473729e-06 2.9076095e-06 4.2020347e-06 3.3243682e-06
0000b0 06 c4 99 36 df 11 90 36 d5 bf 3f 36 5a 1f 4f 36
       4.5825755e-06 4.293615e-06 2.8572879e-06 3.0863653e-06
0000c0 18 e6 4e 36 1d 66 7a 36 42 4e 9b 36 4e 19 84 36
       3.0830324e-06 3.731234e-06 4.6284704e-06 3.9368524e-06
0000d0 08 46 a5 36 3e bc 43 36 5b 3c 83 36 67 96 74 36
       4.925536e-06 2.9166836e-06 3.9111305e-06 3.644638e-06
0000e0 89 4c 41 36 71 f0 86 36 b1 0d 97 36 a2 84 a0 36
       2.880379e-06 4.0215023e-06 4.5017446e-06 4.783812e-06
0000f0 f4 a1 01 37 b4 f0 0d 36 e4 1b 4a 36 17 dd 59 36
       7.726707e-06 2.1150745e-06 3.011658e-06 3.246421e-06
